…
    self.optimizer = ZO_MUON(self, self.model.parameters(), args) # TODO: add for other optimizers
  File "/home/rinya/zero-order-optimization/src/optimizers/zo_muon.py", line 8, in __init__
    super().__init__(trainer, params, args)
  File "/home/rinya/zero-order-optimization/src/optimizers/base.py", line 11, in __init__
    super().__init__(params, defaults)
  File "/home/rinya/anaconda3/envs/zollm/lib/python3.10/site-packages/torch/optim/optimizer.py", line 261, in __init__
    raise ValueError("optimizer got an empty parameter list")
ValueError: optimizer got an empty parameter list
OPTForCausalLM(
  (model): OPTModel(
    (decoder): OPTDecoder(
      (embed_tokens): Embedding(50272, 2048, padding_idx=1)
      (embed_positions): OPTLearnedPositionalEmbedding(2050, 2048)
      (final_layer_norm): LayerNorm((2048,), eps=1e-05, elementwise_affine=True)
      (layers): ModuleList(
        (0-23): 24 x OPTDecoderLayer(
          (self_attn): OPTAttention(
            (k_proj): Linear(in_features=2048, out_features=2048, bias=True)
            (v_proj): Linear(in_features=2048, out_features=2048, bias=True)
            (q_proj): Linear(in_features=2048, out_features=2048, bias=True)
            (out_proj): Linear(in_features=2048, out_features=2048, bias=True)
          )
          (activation_fn): ReLU()
          (self_attn_layer_norm): LayerNorm((2048,), eps=1e-05, elementwise_affine=True)
          (fc1): Linear(in_features=2048, out_features=8192, bias=True)
          (fc2): Linear(in_features=8192, out_features=2048, bias=True)
          (final_layer_norm): LayerNorm((2048,), eps=1e-05, elementwise_affine=True)
        )
      )
    )
  )
  (lm_head): Linear(in_features=2048, out_features=50272, bias=False)
)
PARAMS []